03_rnn_pt/saved/LSTM/best_model.pt (torch, 179555 bytes, 5 tensors)

lstm.weight_ih_l0 f4 [400, 9]
00000000: 229c 643d 9c7b 033d 4651 81bd b833 933d
00000010: f2e5 943d 9138 163c b15a 9dbd 8097 d4bd
00000020: 9af0 923d 7575 71bc 564b 9abd 95bb fd3d
00000030: d1e2 bbba 05d0 583c 3c98 d63c 0d67 ccbd
00000040: c922 eabd 851b 4d3c f2c9 063d 6c29 963d
00000050: 409e 2f3d 9077 90bd 864e 993a 135f 9e3d
00000060: f350 0bbd 4bd5 41bc 315c 69bd 374b 24bd
00000070: dc3f d43c ce66 cf3d 1409 683b e36a 6ebb
00000080: c19b 9dbd 07cb e8bd 720e a9bd 88a6 60bd
00000090: 810d 09bd 8cc4 1b3d a7fa c93d 6e41 d5bc
000000a0: 669a db3a 2894 973d 09eb b0ba 99a7 be3d
000000b0: f626 68bc 2766 a53d b748 4fbd eb2a d63d
000000c0: de2b 803c 434d bdbd ec18 9e3d 631c 5abd
000000d0: 084f c23d 2775 aabd 24ce 7fbd 8e31 9bbd
000000e0: e839 43bb b6fa 5a3d 9e36 b6bd 5403 a5bd
000000f0: b6cd 66bd e6f6 8dbd a2c4 0b3c d006 b4bd
00000100: 8dc1 993c fe67 2cbd 397d f7bc a114 2fbd
00000110: a353 12bd c34a cdbd 121c 89bc 3bd7 2fbb
00000120: 6b4b 97bc 97a1 653c 5a78 d43d 75ac 4a3c
00000130: e146 a13d 53a3 cfbd efb4 aebd 3ed8 413c
00000140: b4c3 9abc 1ba9 2fbc 436c afbd 79e6 c73d
00000150: 129f d0bd dc65 cc3c d316 593d 58b0 b8bd
00000160: 0cb2 00bd 608a 823d fa99 91bd 109e 393c
00000170: cf54 e5bd 999c c4bd fe45 fa3c b1a4 c8bd
00000180: ebf0 f63b 4e0b 803d d9aa 923d b670 15bd
00000190: 8b9f 41bd 0537 b03d ae2a 993d 90ef de3d
000001a0: 2f49 ae3d 0c39 be3b 16e9 72bd d30c 513d
000001b0: 0a66 c0bd 7670 9d3d 7c6c b13d fc8e eabc
000001c0: b6bd 7bbd fe3b 95bd ced1 a8bd 4134 593c
000001d0: a9fc 7c3d 23c2 02bd d620 563d 34e3 66bd
000001e0: 5983 8dbd a4cc 8f3c 8ba8 7b3c d60f 563d
000001f0: 8c3e d23c e975 763d d72b e4bd bab2 a43d
00000200: 3458 d53d 8eb3 f43c 6123 a3bd ee92 bdbd
00000210: 1dac 903c 8531 ca3b 9820 bc3c c995 ed3d
00000220: b8ab d33d 18de b7bd 72f4 33bd 5291 90bd
00000230: 950c 873d 92a6 f63c e695 703c 7969 413d
00000240: 2ae2 02bd 5011 4abd e954 b1b9 e02a a93d
00000250: c0ae d0bd 5f64 4b3b 55bd a73d 5508 c4bd
00000260: 7a69 4f3b c747 593d c799 c0bd b130 b43d
00000270: 8ba3 43bd 876d 4cbc f0f9 84bc dd22 283d
00000280: 16d5 2e3d 5abb 2cbd b060 ecbd ebae a13d
00000290: 56e8 93bd 180e ff3b b98a 7d3d e045 e93c
000002a0: feba 3d3d a121 b1bd 4582 a8bd a2cd 04bd
000002b0: efb0 2bbd 36bc 8f3d 3440 62bd 7e66 2c3d
000002c0: 6f22 3abc 3e53 913d 5fd9 c63b 30ee a8bd
000002d0: 7180 0a3d d9e6 b23d 3319 fdbc fe02 90bb
000002e0: a62b a63d 5980 38bb 38ae 243d 319b 5b3d
000002f0: 4f3b 823d b694 45bd e60c 3bbd 34ee 48bd
00000300: d6d1 f73c 289e 063c 9bcb 113d 57e4 6a3d
00000310: 3d3a 913d 1376 6ebd c313 a9bd 2967 2cbd
00000320: b029 a1bd 8461 df3d e5b3 073d 4f9c d5bb
00000330: bbe3 0f3d 7355 a3bc 097b 7c3d 5b3e bc3c
00000340: 52f8 9abc c654 37bd 995a ecbd 96bd 65bd
00000350: c77e 31bd 0c56 babd 7690 763d c869 313c
00000360: 4811 72bd 3f75 07bd 3b7c ad3d 71a0 0c3c
00000370: d3a7 cbbc 04f6 4ebd 55ef 873d 85b5 b5bd
00000380: 86a9 9d3d 9d17 c73d 2d91 953d f10f e1bc
00000390: 8467 b73d 3e86 a4bd 6e0e c33d 1254 663d
000003a0: 29f0 aabb 2acd 943b d2d6 953d 5e73 7d3c
000003b0: b4ec f83b edb6 90bd 2a4a 9a3d cbda cbbb
000003c0: 914e 47bd 5cbf c4bd 08ae 22bc 583c a1bd
000003d0: 146e fc3c a7b4 99bd 7a2a 32bd 5a0e 45bd
000003e0: 0ab6 87bd 340b d53b 2359 553c 1aae 983c
000003f0: 7c2a 843c 0a2b 3fbd d9af 34bd e6a9 c2bd
0.055812962 0.032100305 -0.0631433 0.07187599 0.07270421 0.00916876 -0.07683314 -0.10380459
0.07174797 -0.014737477 -0.075339004 0.12389294 -0.0014334564 0.0132331895 0.026195638 -0.09980593
-0.11432416 0.012518768 0.032907434 0.07332119 0.04287553 -0.07054055 0.0011696375 0.07732978
-0.034012746 -0.011830638 -0.056972686 -0.040110793 0.025909357 0.1012703 0.0035405802 -0.0036379627
-0.07695723 -0.113668494 -0.08254708 -0.054846317 -0.033460144 0.03802924 0.09862261 -0.026032176
0.0016754388 0.074013054 -0.001349778 0.093093105 -0.014169445 0.08076125 -0.050606456 0.10457405
0.015645918 -0.09243252 0.07719597 -0.053249728 0.0948773 -0.08323126 -0.06245245 -0.07577811
-0.0029789153 0.053461753 -0.08897136 -0.080572754 -0.056348525 -0.06931858 0.008530768 -0.08790362
0.01876905 -0.042091362 -0.030211078 -0.042744283 -0.035724293 -0.10024025 -0.016737018 -0.0026831168
-0.01846858 0.014015577 0.10374518 0.0123702185 0.07874847 -0.101385735 -0.08530604 0.011831341
-0.018892147 -0.01072147 -0.08565571 0.09760756 -0.1018659 0.024950914 0.053000282 -0.0901801
-0.0314198 0.06374049 -0.07109447 0.011329189 -0.111978166 -0.09600181 0.030550953 -0.097970374
0.007536044 0.06252156 0.07161493 -0.036484443 -0.047271293 0.08604244 0.07478844 0.10885537
0.085100524 0.0058051404 -0.05930432 0.05103762 -0.093944624 0.07687466 0.0866327 -0.028632633
-0.06146022 -0.07286833 -0.08243142 0.013257087 0.061764393 -0.031923424 0.05227741 -0.05636902
-0.06909818 0.017553635 0.015360008 0.052261196 0.02566459 0.06017104 -0.11141174 0.08041902
0.10417214 0.029870775 -0.07965732 -0.0925654 0.017660195 0.006170454 0.02296476 0.11600835
0.10335487 -0.08977908 -0.043934293 -0.07058968 0.06594197 0.030108724 0.014684176 0.047219727
-0.031953968 -0.049332917 -0.00033823334 0.08260131 -0.10189581 0.0031035168 0.08190409 -0.09571902
0.0031648562 0.053046968 -0.09404331 0.0879835 -0.04776339 -0.012477285 -0.01623246 0.041048873
0.042683683 -0.04217086 -0.11541879 0.07894691 -0.07222049 0.0077836625 0.061899874 0.028475702
0.046320908 -0.08648992 -0.08227972 -0.03242267 -0.041916784 0.0701832 -0.05523701 0.04208993
-0.011360749 0.07095955 0.006068393 -0.08248556 0.033813898 0.08735437 -0.030895805 -0.004394888
0.08113794 -0.0028152673 0.04020521 0.0536148 0.063589685 -0.048237525 -0.045666598 -0.049055293
0.030251425 0.008216418 0.035594564 0.057346668 0.07091186 -0.058218073 -0.082557224 -0.04209057
-0.078692794 0.109072715 0.033130545 -0.0065188776 0.03512929 -0.019938206 0.061640773 0.022978952
-0.018917236 -0.04475858 -0.11540718 -0.056089006 -0.043333795 -0.090984434 0.060196362 0.010828443
-0.059098512 -0.0330708 0.08470961 0.008583174 -0.024860298 -0.050527588 0.06637446 -0.08872513
0.0769835 0.09721301 0.07303081 -0.027473422 0.08955291 -0.08033417 0.095242366 0.05623252
-0.0052166176 0.004541059 0.07316364 0.0154694 0.0075965766 -0.0706614 0.07533677 -0.0062211505
-0.04865891 -0.096068114 -0.009929188 -0.07872838 0.030814208 -0.0750516 -0.04349754 -0.04810939
-0.06626518 0.0065015797 0.01302174 0.018637706 0.01613354 -0.046671905 -0.044113014 -0.09505062

lstm.weight_hh_l0 f4 [400, 100]
00000000: 3110 0ebd af22 e2bc 9001 223d 664a d2bd
00000010: 0f98 a1bd a968 713c 9f05 cc3d 3baa e73b
00000020: edac 6c3d cc98 e3bb a87e 51bd ee4b 02bd
00000030: 562e 5e3d ce83 85bd fb16 433d 44fd 4ebd
00000040: dce9 60bb 9d2f 163d 5cad c8bc 6db3 83bd
00000050: 2f4c 17bd 7dfd 8dbd a437 493b f5a9 8b3d
00000060: 6d22 32bd c0ae 46bc 021c 843d 750a dbbc
00000070: 6e7c 9f3d 58d7 c03d e92f 23bd 6f16 79bd
00000080: c615 473c 566f 5abc a954 b73d f502 d2bd
00000090: 17dc 4dbd e6cc 093c f45f e0bc 39ec 6fbd
000000a0: 307d a5bd 3ef7 84bd c6f9 79bd b4cf 9c3c
000000b0: 7609 48bd f151 203d 4961 c93d 7547 02be
000000c0: 9c4c 2b3d b137 d03d 4c1a 7e3d 56ed bdbd
000000d0: 4d37 8fbc e4e0 6a3d 1b67 bbbc 9470 cabd
000000e0: 733e 033d 25b2 923d 9ae0 b73d 9603 ae3d
000000f0: 41cb dabb e297 dabd 09a3 67bd b0e4 99bd
00000100: 3208 7fbd bea9 013d 1d69 47bd f22c 143d
00000110: a378 e53d 86f5 3abd a96b 91bd 37cd 0e3d
00000120: 78b0 c1bc d0fb aa3d 801e a2bb 1e85 c23d
00000130: f161 babd d19b 783d f905 1cbd 864f 76bd
00000140: 33d0 b43d 2f3b 313c 3024 0cbb b23d 86bd
00000150: 5d8d 7a3c bf0c b9bc 4b54 c83d 7283 d2bd
00000160: 65fe 31bc 6118 91bd e03e b53d 1151 d6bc
00000170: fb8e 6b3d 90e9 7abd 05f8 98bc a568 753d
00000180: f953 af3d 2d27 1dbd 7113 99bd 72df 2abd
00000190: 46a5 383d c04f 9e3d ea7a a1bd 405b a93d
000001a0: 4e1a d4bc 6b9b a2bd 3f75 283d b2f0 36bb
000001b0: dc95 e03c 281c 92bd 783b a6bc 9806 7bbd
000001c0: 84bc b63d 6357 49bd 7d7b e8bc cc21 7abd
000001d0: da89 8abd eeed ca3d 048d 2bbd b6f3 c2bb
000001e0: cbe6 a6bd 540c 8f3d 3d59 9dbd 348a 973b
000001f0: bb8f dbbd f09b 92bd ad20 9a3c 4225 0ebd
00000200: c486 bfbb 56cf a03d 6971 99bd c199 ab3d
00000210: 8780 1bbd d383 a63d 3da5 a13d aa67 9c3b
00000220: 0a3c d43d 2305 d4bc 3744 6b3d 7107 e33c
00000230: 58b2 8e3d 5e77 e4bd 556d 88bd e99a 493d
00000240: f9c6 d13c 2125 5fbc d1c4 ad3c 22bf b53c
00000250: 462f 9abd ae58 81bd 582e 9c3d 0af0 2c3c
00000260: 8290 a6bb 18a8 27bd 0822 aabb 5920 ccbc
00000270: 66bf 8a3d e55b 983d 09c6 b73c 1bd3 b6bd
00000280: b8de 893d e364 653d 968a 9cbd 7ff1 9c3c
00000290: 7825 763d 22a8 de3c abf5 443d 31a8 98bd
000002a0: abd7 353d 33a9 c2bd de45 a6bd 3da4 ce3d
000002b0: fa0c cfbb 9b8d cc3d 2d90 94bd c11a 8d3c
000002c0: 974d 0c3d e34c 933d 106a 48bc a135 a83d
000002d0: dd52 2cbd d0fb 583c a1eb 0e3d 0e54 bd3c
000002e0: 0aa6 b3bd 817f 10bd b7da 093d 1c2b 453d
000002f0: 9f02 e23c 1177 563c 8941 91bd acdf 6a3d
00000300: 0c07 973a 4065 b938 01ea 9abd bb66 b23d
00000310: 589f c23d 9f5b 98bc cb25 e03b df0e b43d
00000320: dbfb ab3d 1bb6 133d 18ef 013d d5b9 66bd
00000330: b2fc 1ebd 91e9 633c 44e7 613d a9f9 92bd
00000340: 1189 8e3d b588 863d 9da7 953d 54ec 863d
00000350: 1b50 e53d 4901 b5bc 9018 05ba a06a ad3c
00000360: 4415 803d 7bf8 9c3d 1dcc 98bd 8371 72bd
00000370: 748d a23d e2ab 853d 780e 48bd 510c 603d
00000380: 1190 a9bd 2886 283d 2e2b 70bd 424b 1ebd
00000390: 90e4 70bd cfde ecbd d1a6 493d a76b 95bd
000003a0: 36cf 453d eae6 493d a64b 74bd 52e9 2fbd
000003b0: 54f9 a33d 4483 0d3d e4cf 85bd 978a ddbc
000003c0: fe90 c43d 1c24 273d d15b 243d 3d18 023d
000003d0: f59c 123d e3a5 8abd bc7f 86bd e2e1 e83d
000003e0: b26b 28bb 987d 253d 32ea 863b 12d7 a43d
000003f0: 16d5 8abc 7916 9ebc e574 85bd 02ca 30bd
-0.03468341 -0.027604429 0.03955227 -0.102680966 -0.07890331 0.014734426 0.0996201 0.0070698536
0.057782102 -0.006945705 -0.05114618 -0.031810693 0.05424341 -0.065192804 0.047629338 -0.0505345
-0.0034319079 0.0366665 -0.024496727 -0.06430707 -0.03693789 -0.06933115 0.003070333 0.06819526
-0.043489862 -0.012126625 0.064506546 -0.026738385 0.07787405 0.094160736 -0.039840613 -0.06081241
0.012151187 -0.013332209 0.089516945 -0.1025447 -0.050258722 0.008410668 -0.027389504 -0.05857489
-0.08080518 -0.0649247 -0.061029218 0.01914201 -0.048837148 0.039140645 0.09833009 -0.12722571
0.041821107 0.10166872 0.062036797 -0.09273784 -0.017482424 0.05734338 -0.022876313 -0.09884754
0.032041978 0.071628846 0.08978386 0.08496778 -0.006677062 -0.106735006 -0.056551967 -0.07514322
-0.062263675 0.03165602 -0.04868423 0.036175676 0.1120465 -0.045644306 -0.07100613 0.034863677
-0.023643717 0.08348811 -0.0049474835 0.09498046 -0.09100712 0.060695473 -0.038091633 -0.060134433
0.08828773 0.010817333 -0.0021383874 -0.06554736 0.015292493 -0.022589086 0.097817026 -0.102789775
-0.010863875 -0.07084728 0.08849883 -0.026161702 0.057509404 -0.0612579 -0.018672952 0.05991425
0.085609384 -0.03836744 -0.07474411 -0.041717 0.045079492 0.07730055 -0.07884772 0.08269358
-0.02589145 -0.079398 0.04112744 -0.0027914462 0.027415209 -0.07134277 -0.020292029 -0.061285585
0.08922675 -0.049155604 -0.028379196 -0.061067387 -0.06764574 0.09908663 -0.04188253 -0.0059494628
-0.08149489 0.06984773 -0.076830365 0.0046246294 -0.10720774 -0.07158649 0.01881441 -0.0347035
-0.0058449227 0.07852046 -0.074923344 0.083789356 -0.03796437 0.08130612 0.07892845 0.0047731
0.10363014 -0.025881356 0.0574381 0.02771351 0.0696761 -0.1115558 -0.066614784 0.04922
0.025607573 -0.013619692 0.021212013 0.022185866 -0.07528548 -0.063157424 0.07626027 0.010555277
-0.0050831446 -0.04093179 -0.005192045 -0.024917768 0.067747876 0.074394025 0.022433298 -0.08926984
0.06731933 0.056004416 -0.07643621 0.019158123 0.060094327 0.027179781 0.04808585 -0.07453955
0.04439513 -0.095049284 -0.08118795 0.1008992 -0.0063186856 0.099879466 -0.07254062 0.017224671
0.034253683 0.07192399 -0.0122323185 0.08213354 -0.042071212 0.0132436305 0.034892682 0.02311137
-0.08771904 -0.035277847 0.03365585 0.048136815 0.02758914 0.013089911 -0.07092578 0.057342216
0.0011522486 8.840347e-05 -0.07564164 0.087110005 0.09503049 -0.018598376 0.006840443 0.08791899
0.08397647 0.03606234 0.03172216 -0.056329567 -0.038815208 0.013910667 0.055152193 -0.07176525
0.06959737 0.065690435 0.0730736 0.06588045 0.111969195 -0.02209534 -0.00050772075 0.021169007
0.06254056 0.076645814 -0.074608065 -0.059190284 0.07937136 0.06526925 -0.048841923 0.054699246
-0.082794316 0.041143566 -0.05863493 -0.03864599 -0.058811724 -0.11565935 0.049231354 -0.07295924
0.048293315 0.049292482 -0.059642456 -0.04294712 0.0800654 0.034549013 -0.065337926 -0.027043624
0.095979676 0.04080592 0.040126625 0.031761397 0.035794217 -0.06769922 -0.06567332 0.11371209
-0.0025698957 0.04040298 0.0041172737 0.08048834 -0.01694731 -0.019297825 -0.065164365 -0.0431614

lstm.bias_ih_l0 f4 [400]
00000000: 0dd4 62bd d7fb 8f3c a8e1 9fbb 7559 4cbd
00000010: c5fd 50bd 6d1f a2bc 58f0 c13d 83dd c8ba
00000020: 40a7 423d 7991 63bd 0656 1cbd 4e23 a53d
00000030: 08ad 603d da96 57bd e4ca c73d 121f d1bc
00000040: b899 953d b136 8f3d 2329 993b 0b89 fcbc
00000050: 47b2 3c3d 36ff 633d f9b8 c63d 34f9 57bc
00000060: 6f0f 0abd a33f 953d 51af ecbc 5619 033d
00000070: 0b82 1f3d 53ce ce3d d407 c93d bff7 96bd
00000080: 26c7 52bc d30f 3c3d 2863 423b 2145 28bc
00000090: e4f1 0d3e 3546 8b3d 66f9 80bd 4b1b 203d
000000a0: 2f20 f6bc 9c5f 4d3d 2f18 6abd ff12 053d
000000b0: 08ab aa3d 6a4e b5bc f3f1 ec3d 3eb9 f63d
000000c0: a224 853d eafe 313c 3165 4f3c a358 c6bc
000000d0: 78d4 933d 3267 89bc 6523 aebd 1e81 4e3d
000000e0: 3d46 433d f823 1fbb f4fe 6f3d 27b8 8bbd
000000f0: b9a4 6fbd b011 e33d 0aa5 80bd 0f61 d93d
00000100: 8d5e cb3c 5263 c43a b1ae ac3d cf9c 64bd
00000110: 8588 33bd 2d69 3fbd 7986 363d ba8c 8b3c
00000120: d1b4 fa3c 296e 00bd 0a13 a43d d991 963d
00000130: d4e1 593c 59cd e23d 8c03 b53c 94a9 583c
00000140: 79b8 8cbc 2613 bebb 1905 ee3d 2918 073b
00000150: cc4b 37bd 1754 323d 50b7 c1bc b12f 283c
00000160: 0bca a83c b253 983d cf9f 67bd 9051 e03d
00000170: 35a0 a63c 2641 293d 1c0c 033c 31a0 903c
00000180: b204 9f3d f175 0e3d f4da d93a 4a13 81bc
00000190: 3dd9 f13a 84c4 7d3d 6c92 223d d89e fcbc
000001a0: f24a 063d 169c a73c 4b72 993d f515 c43c
000001b0: 7712 7b3d dc0f 91bd 0b42 793d 4255 8f3d
000001c0: 6143 10bd 872b 1cbd bbe2 7fbd fb3b 5a3d
000001d0: 737b d03c 5349 f53a 7b48 41bd 6cb6 553d
000001e0: f02b 783d 7bfb afbd 1618 6e3c fb2e cb3d
000001f0: 7841 6ebd 2dbb 093c 7bf8 7d3b a862 ac3d
00000200: b9bc 9abd 7bdf 39ba 3887 a63d f315 823d
00000210: 2920 903d b20d b83d aef8 e93d c804 2fbd
00000220: 7708 2e3d ed8b 3fbd 65fb a73d ce7c b2bd
00000230: 8461 e13a 44f2 063d ec00 a93d 303d 803d
00000240: fe1f c03d 983f b03c 6bfd 28bd 0c3d 39bd
00000250: 58ae 8a3d bf65 92bd 3329 42bd 6cf6 243d
00000260: eecd 3b3d c2f5 89bc 5f76 8f3c 2466 db3d
00000270: fece c13b f1af f13d d3da c33d 2651 773c
00000280: 3468 88bd b085 b13d 5ef1 613c 6122 75bd
00000290: 8091 433c 81c5 013d 72cc e03d 49ce cd3d
000002a0: 4301 8bbd 2237 733d fe11 233b e98d 683d
000002b0: f963 02bd 904e 68bc 05ce 12bd 6e6f 743d
000002c0: c5be b33d 9ad1 a9b9 97ff 2f3c 701f ab3d
000002d0: b5d5 42bd 94c2 a7b9 42a9 b23a f76e 8ebd
000002e0: 9335 153d ee05 aebd e519 ccbd c0bc babd
000002f0: d17c 6a3d 34c5 7e3d 4606 45bd c82a bebc
00000300: 4bde 92bd 783b b43d 57b0 4bbd e622 da3d
00000310: 9018 f23c ab32 64bd 16cf d43d a198 a03c
00000320: d804 24bc 74c4 8cbc 815a 93bd 7d75 b43d
00000330: e6fc 7a3c 1c73 6abc 64ff 5bbd e931 803d
00000340: b7fd a33d 9e9c 6dbd 7d4c 8fbd 8ec0 68bd
00000350: b965 f63c a134 a3bd 13fb c33d c36e e43d
00000360: c206 8e3d b88a 56bd 377f 9bbd 9fa7 10bd
00000370: c89b 63bd d7b0 ddbc b386 af3d 1aef 3b3d
00000380: 8e17 9dbd 2575 cdbd 96e1 46bc ac11 83bd
00000390: b4f9 8e3d 1d6d b4ba 5a24 06bd 1317 e73d
000003a0: 4eb5 07bd 9f9a d03d 4999 0ebd 1d3e e2bc
000003b0: b531 a83d 1c81 50bd ce1e 01bd c97a 1ebd
000003c0: 7b22 893d f054 bbbd 20cf 4bbd be35 9fbd
000003d0: 325e d83c 0ab7 623d 8b41 d1bd 86f7 ca3d
000003e0: e29a 173d e8d2 f3bd e8b5 cbbc 6678 353d
000003f0: 8ed4 15bd 6bc3 853d 26c4 2ebc fe1b 8abd
-0.05537801 0.017576141 -0.0048791952 -0.04989 -0.051023263 -0.019790376 0.0946967 -0.0015324805
0.047522783 -0.055558655 -0.038167976 0.080633745 0.054852515 -0.052634098 0.09755495 -0.02552751
0.0730471 0.069928534 0.0046740933 -0.030827066 0.046068456 0.05566331 0.097032495 -0.013181973
-0.033706125 0.07287528 -0.028892191 0.032006584 0.038942378 0.10097947 0.09815946 -0.073714726
-0.0128648635 0.04591353 0.0029661153 -0.010270388 0.13861805 0.068005 -0.06297569 0.03908853
-0.030044643 0.05014001 -0.05715197 0.03248882 0.08333403 -0.022132117 0.11569586 0.12047051
0.06501128 0.010863999 0.012658403 -0.024212187 0.072182596 -0.01677284 -0.08502845 0.050416104
0.047674406 -0.0024282914 0.05859275 -0.06822234 -0.0585067 0.11087358 -0.06281479 0.106142156
0.024825359 0.0014983213 0.08431757 -0.055813607 -0.043831367 -0.046731163 0.044561837 0.017034877
0.030603798 -0.031355057 0.08011444 0.07352037 0.0132984705 0.11074323 0.022096418 0.013224024
-0.017177807 -0.0058006225 0.11622066 0.0020613766 -0.04475002 0.043537226 -0.02364698 0.010265277
0.020604154 0.074378386 -0.05654889 0.10953057 0.020340065 0.041321896 0.007998493 0.01765451
0.077645674 0.034780446 0.0016621039 -0.015756268 0.0018451583 0.06195499 0.03969042 -0.030837461
0.032786317 0.02046017 0.07492503 0.023936251 0.061296906 -0.07083103 0.060854 0.069986835
-0.035220508 -0.03812745 -0.062472086 0.053279858 0.02544949 0.0018713869 -0.047188263 0.052175924
0.060588777 -0.08592888 0.01453211 0.0992107 -0.058167905 0.008406443 0.0038752842 0.08417255
-0.07555527 -0.0007090491 0.0813126 0.06351843 0.07037384 0.08986987 0.11424385 -0.04272917
0.04248854 -0.046764303 0.082022466 -0.08715211 0.00171952 0.032945886 0.08252129 0.062616706
0.09381102 0.021514699 -0.041257303 -0.045224234 0.06771535 -0.07148313 -0.047402572 0.04027407
0.045850687 -0.01684082 0.017512498 0.10712841 0.005914568 0.11801136 0.09563222 0.015095031
-0.066605 0.08668077 0.013790457 -0.05984724 0.011936545 0.031682495 0.10976495 0.100491114
-0.0678735 0.05937875 0.002488255 0.05677596 -0.031833623 -0.014178887 -0.035841007 0.05967658
0.08776621 -0.00032390357 0.01074209 0.083556056 -0.04756709 -0.00031997694 0.0013630765 -0.069547586
0.036428045 -0.08497225 -0.099658765 -0.091180325 0.05724794 0.062199786 -0.048101686 -0.023213759
-0.07171305 0.08800405 -0.049728718 0.106511876 0.029552728 -0.055712383 0.10391061 0.01960403
-0.01001092 -0.01718352 -0.071949966 0.088114716 0.015319085 -0.014309671 -0.053710356 0.062595196
0.08007377 -0.05801069 -0.06997011 -0.05682426 0.030077802 -0.079690225 0.09569373 0.111539386
0.06934883 -0.052378386 -0.07592624 -0.035316106 -0.055568486 -0.027061863 0.08570614 0.045882322
-0.07670508 -0.10032109 -0.012138745 -0.06399855 0.06981221 -0.0013765428 -0.03274951 0.11283698
-0.03313189 0.10185742 -0.034814153 -0.027617509 0.08212606 -0.05090438 -0.03152352 -0.038691316
0.0669603 -0.0914706 -0.049758077 -0.077739224 0.026412103 0.05535034 -0.102175795 0.099104926
0.037012942 -0.119054615 -0.024867013 0.044304274 -0.03657966 0.06531414 -0.010666883 -0.0674362

lstm.bias_hh_l0 f4 [400]
00000000: 8201 1fbd 6e09 b63c 3d13 20bd 1837 c2bc
00000010: 7a75 83bd 1a6f 82bd fe53 aa3c 8f9a c93c
00000020: 6a2f 52bd db57 a8bd df95 7a3d 4874 acbc
00000030: 3a17 c93d dffb 9e3c 1ab7 37bd 4339 c5bc
00000040: 8dbc 573d 673a a13d 7294 8f3d a796 05bd
00000050: e74a c13c 25b7 e7bb 45c4 fabc f455 a23d
00000060: baa4 8abd 5593 5a3c 959d 57bd dfe0 303d
00000070: c6bf cf3b 590a d83d e4dd 6d3d b3ff df3d
00000080: 68a9 abbd fcf6 90bd 7275 043b 8d43 c6bc
00000090: cdd1 813d 54ef a4bd 57fc 36bd 9752 273b
000000a0: e717 c23c d499 a1bc 155f 60ba de83 273c
000000b0: feb3 eebb 20da a5ba e278 fdbb 14e9 093e
000000c0: 8d4a 61bc bdfe bfbc 33d8 f63d 6a27 663d
000000d0: a56a 88bd 4b6b 92bc 2da1 343d b8e0 3d3d
000000e0: f410 af3b 1956 bdbc 70d9 a33c 34e7 633d
000000f0: c24e 053d 1ea6 dd3b 60c3 0a3c f75e 5a3d
00000100: c4e0 d53d 799e 043d 9e47 043d d6a9 1c3d
00000110: d2ee 3ebd 9e27 8e3d 9194 b93c 4249 19bd
00000120: 8dee c93c 396d c4bb d600 18bd 9f88 b83d
00000130: f717 94bb 927b 683d d339 d83d 56fa c03d
00000140: f4c6 abbc e78f 8f3d addc 1cbd 3faa c33c
00000150: 1a42 c1bb 47f0 dc39 146d b53c e5a4 4a3d
00000160: 9f48 003d ac3b e83d 9ba9 b33d 8bc3 703d
00000170: 217c 023d d1ae 48bc b9a5 45bd ca4b a3bb
00000180: 83b2 c93d aa37 0d3c d109 cf3d 09ef ad3b
00000190: 08d2 253d 22fd 8eba 6035 76bc e2a1 b13d
000001a0: fdfe a7bc e539 2abd 2d76 48bd 05cd 7fbb
000001b0: d5c5 7a3d 53b9 7c3d f253 1dbd 35a0 a6bd
000001c0: b949 adbd b920 8c3d 12e3 863d 776e 993d
000001d0: 3704 9abd f4f6 043d 0dd6 943d 1995 4a3d
000001e0: 85f2 1c3d 6729 053d 9249 66bd 1fec a9bd
000001f0: a8a0 353d b4b3 dc3d 2ff5 543d 1a27 41bd
00000200: a9ea b8bc 0bd2 95bd 8262 783d 2443 6ebd
00000210: b238 483c baeb 47bd d0d9 42bd d58b 12bd
00000220: fbc0 b5bd 1fe6 0dbc 4a1e 113d bd04 c03c
00000230: c60a 293c 4a88 ab3c 4f4c abbc ebda 7bbd
00000240: 5ee5 283d 12fd 96bd f216 b93d d192 973c
00000250: 8aa4 6e3d 6dba 97bd 9a44 7b3d a56a cb3d
00000260: 67d3 c03a e971 6c3d c634 45bd 1c21 b8b9
00000270: 0f76 023c 5f11 88bd 85cb 1d3d 3f14 73bb
00000280: d86b 333d 1aef 893d f77d 4d3c 2a38 323c
00000290: 2497 783d f8f8 c03d 1319 78bc 719e b53d
000002a0: 6bb2 cd3d 3fc3 4b3d b789 9fbd 6e1d a1bd
000002b0: 3b0c 4ebd cf74 773d 0dc5 903d fdf8 80bd
000002c0: d655 c23d 5892 5c3c 923d dd3d 9aa8 a5bc
000002d0: 39e6 9dbd 1f8a f13c 9ad9 9ebc b4c8 06bd
000002e0: a056 ec3c a1c6 00bd 562d dbbc 13a4 633c
000002f0: 66da 3dbd 7d15 ddbb 22a5 503c b108 d73d
00000300: 2822 a13a 8233 23bd ca06 d43d 597a 4e3b
00000310: 89cc 63bd 0dc2 90bd 05fb eabc 0216 37bd
00000320: 8ef0 a4bd af13 7b3d 4d1b ac3d 336d 70bc
00000330: 54c9 ccbd fdae 47bd 1382 1c3d e760 053d
00000340: d8a1 91bd 4d03 6cbb a979 ea3d ff3b 013c
00000350: 0655 be3d eb98 6d3d 0b77 0e3d 5510 0e3d
00000360: bbf2 a83c 6664 013d e715 5cbd bfa8 5a3d
00000370: 92bc 68bd a00a 97bd 7835 5e3d f50f d53c
00000380: edd5 cabd 5ba5 29bd 2313 753d 84fa 173c
00000390: 2e0f ddbd 3222 a7bd 4240 b9bc fbc8 783d
000003a0: bd6f d5bc d367 81bc 8065 aebd 41db c33d
000003b0: 7485 8fbd 2943 ca3d d222 a6bd f72b babd
000003c0: 93b8 193c 5d14 95bd dcda 973d 72da e4bc
000003d0: 8a09 b9bd 2fa2 b2bd 0ca2 fbbc 7d78 8cbd
000003e0: ddae 8bbd 0f82 e4bc 9598 48bc a24e ecbc
000003f0: 01ea 1abd fc69 d43d d740 4a3b 9c45 b53d
-0.038819797 0.022221293 -0.039080847 -0.023707911 -0.06418891 -0.06368847 0.020792004 0.024609832
-0.05131475 -0.08219882 0.061178084 -0.021051541 0.09818883 0.01940721 -0.044852354 -0.024075156
0.05267005 0.078724675 0.070107356 -0.032614376 0.023595287 -0.007071393 -0.030611167 0.079265505
-0.067697 0.013340791 -0.052640516 0.043183204 0.00634 0.10548849 0.05807294 0.10937443
-0.08381921 -0.070783585 0.0020211604 -0.024202133 0.063388444 -0.08053461 -0.044674244 0.0025531405
0.023693038 -0.019726671 -0.000855909 0.010224311 -0.0072846403 -0.0012653507 -0.0077353576 0.13467818
-0.013750684 -0.023436898 0.120529555 0.056189932 -0.06660966 -0.017873427 0.04409902 0.046356887
0.005342597 -0.023112344 0.020001143 0.055640414 0.032545812 0.0067641875 0.008469433 0.05331322
0.10443261 0.032377694 0.032294862 0.038247906 -0.046614476 0.0694115 0.02265385 -0.03742338
0.024649883 -0.0059944657 -0.037110172 0.090104334 -0.0045194584 0.05675847 0.10557904 0.09422748
-0.020968892 0.07009869 -0.03829639 0.02388489 -0.0058977725 0.0004214069 0.022146739 0.049473662
0.031319257 0.113395065 0.08772584 0.058780234 0.03185666 -0.012248711 -0.04825375 -0.0049834
0.098485015 0.008619228 0.10109294 0.005308036 0.040483505 -0.001090918 -0.015027374 0.08673455
-0.02050733 -0.04155912 -0.048940826 -0.0039032113 0.061223824 0.061700176 -0.038410135 -0.08136026
-0.08461327 0.06842179 0.06586279 0.074917726 -0.07520335 0.032462075 0.072673894 0.049458597
0.038317222 0.032510187 -0.056222506 -0.0829699 0.044342667 0.10776463 0.051991638 -0.04715643
-0.022572832 -0.07315453 0.06064082 -0.0581695 0.0122205485 -0.04880879 -0.047571003 -0.035777885
-0.08874699 -0.008660822 0.035429277 0.02343976 0.01031751 0.020939011 -0.02091041 -0.061488073
0.041234367 -0.07372488 0.090375796 0.018502625 0.058262385 -0.07408605 0.06134472 0.0993245
0.001471144 0.05772582 -0.04814603 -0.00035119883 0.007962718 -0.06643938 0.03852417 -0.0037090925
0.04380402 0.06735058 0.012542239 0.010877648 0.060691014 0.09422487 -0.015142697 0.08868111
0.10043796 0.049746748 -0.07789939 -0.078669414 -0.050304633 0.06041413 0.070688345 -0.06297491
0.09489028 0.013462625 0.10802759 -0.020221997 -0.07709927 0.029484807 -0.01939087 -0.03290625
0.0288499 -0.031439427 -0.026755016 0.013894099 -0.04635086 -0.0067469464 0.012734683 0.10499705
0.0012293505 -0.039844044 0.103528574 0.003150603 -0.05561498 -0.07068262 -0.028684149 -0.044698723
-0.08053695 0.06129807 0.08403645 -0.014674473 -0.09999338 -0.048750866 0.038209986 0.032563116
-0.07110947 -0.003601271 0.11448986 0.007887839 0.09293561 0.058007162 0.034781497 0.034683544
0.020623555 0.031589888 -0.053731825 0.053383585 -0.05682046 -0.073750734 0.05425021 0.026008585
-0.09904084 -0.04141746 0.059832703 0.009276036 -0.10793911 -0.08160819 -0.022613648 0.060738545
-0.026054258 -0.015796578 -0.08515453 0.09563304 -0.07007876 0.09876091 -0.0811211 -0.09090417
0.009382385 -0.072792746 0.07414791 -0.027936194 -0.090350226 -0.0872234 -0.030716918 -0.06858919
-0.06820462 -0.027894048 -0.01224341 -0.028846089 -0.03782082 0.103717774 0.0030861401 0.088511676

fc.weight f4 [1, 100]
00000000: ccd9 97bd c0bd d6bc b75e cd3d 8111 0dbc
00000010: 60be db3d f6dc e93d 3625 8a3d 91c9 97bd
00000020: c892 eb3c 76eb cd3d 9834 353d 0dee 5a3d
00000030: 1af0 6fbd 0e14 fa3d c694 bebc 71e8 223d
00000040: 188d e2bd d0ba ad3d 5d40 863d 1b2f de3d
00000050: d725 ebbc dfc3 753d 6e62 edbc 3e03 0d3e
00000060: 56cd dbbd 7495 41bd c5e6 3d3d 5ed9 903d
00000070: bab5 36bd e317 e23d 5314 06be 64c1 25bd
00000080: a46c c63d 3535 6dbd a3df 47bd eb72 1abd
00000090: adf8 0f3e 7c80 5b3d 2346 e53d 62d4 ca3d
000000a0: 89a6 f53d feac 93bd b304 20bb 3453 3fbd
000000b0: cf16 fdbd 04ee febd fdb6 2bbd c7f2 d93d
000000c0: 972a 123c 2c6b a7bd 29dc 193d 600e dcbd
000000d0: 8c87 fc3a a1cb bfbc 1c57 493c df34 273d
000000e0: bd7b 833b 7bfe b83d 477b a93d 7160 3b3d
000000f0: dc06 a13d 3e19 19bd 26eb 9bbd 935a a73d
00000100: 9d23 42bd 22e7 8fbd ea92 f73c 4e85 3dbc
00000110: 3ee9 ae3d 5340 b5bd 69a1 ef3b bb14 c63d
00000120: a064 44bd e764 28bd 1500 2cbd ab00 c33c
00000130: 219e 49bb b6ec 053e 57c9 ef3d 93a5 f1bd
00000140: be91 933d 00ab 3f3d 57c9 e83d 378c b43c
00000150: b69b 94bc a376 e9bd 6ce8 2c3d 742b 453d
00000160: 7b3f b03d 2e5e da3d 5251 da3c 3e45 8e3d
00000170: 453e f33d 9b3e 2d3c 39ed 8abd 9ab3 29bc
00000180: 127e ea3d 2a11 c13c 3010 7ebd eb3f 633d
-0.07414588 -0.026213527 0.10027831 -0.00861013 0.107296705 0.11419098 0.06745379 -0.074114926
0.028756514 0.10054676 0.04423961 0.05344968 -0.058578588 0.122108564 -0.0232643 0.039772455
-0.11062068 0.08482897 0.06555245 0.108488284 -0.028704567 0.06000125 -0.028977599 0.13770768
-0.10732524 -0.04726167 0.046362657 0.070727095 -0.0446069 0.11039712 -0.1309369 -0.040467635
0.0968869 -0.05791207 -0.04879726 -0.03770725 0.14059706 0.05358933 0.11195018 0.0990379
0.11994655 -0.0721073 -0.0024416863 -0.046710208 -0.12357866 -0.12447742 -0.041922558 0.10642009
0.008921287 -0.08174738 0.037563477 -0.10744929 0.001926647 -0.023412528 0.012288835 0.040821906
0.0040125535 0.09032913 0.082754664 0.04574627 0.078626364 -0.03737759 -0.076132104 0.081715725
-0.047397245 -0.07026507 0.030221421 -0.011567427 0.08540581 -0.088501595 0.0073129428 0.09671923
-0.047947526 -0.041111853 -0.041992266 0.02380403 -0.0030764418 0.1307858 0.117083244 -0.11799159
0.072055325 0.046793938 0.113665275 0.022039516 -0.018140655 -0.11399581 0.042213842 0.048137143
0.08605858 0.106624946 0.026650105 0.06946801 0.11877111 0.010574008 -0.06783528 -0.010357762
0.11449827 0.023567755 -0.062027156 0.05548088
